aviation_turbulence/neuralnet/checkpoint_2024-01-25_1556.pt (torch, 82507 bytes, 11 tensors)

0.weight f4 [100, 65]
-0.5764986 0.45424438 0.3710787 -0.18828225 -0.35018748 -0.37640953 0.58965015 0.9998649
0.46285284 -0.07438964 0.234194 -0.20423838 -1.1393867 0.4099829 0.6878907 0.21680361
0.3376492 0.02208747 0.05127721 -0.7831057 -0.29445302 -0.22923708 0.054480635 -0.61878186
-0.018049262 0.2667525 -0.3115249 0.041096296 0.09361514 -0.122184254 0.19052199 0.123153314
0.113788754 0.47087014 0.31949237 -0.2142259 -0.28849158 -0.4708961 -0.6068747 0.87001336
0.5067509 -0.6366735 0.41454172 0.14353639 -0.1910961 1.582404 1.4443243 1.5797483
0.80843824 0.024434146 0.19660378 -1.2703768 0.870149 0.025655854 -0.5091157 0.0065850494
-0.36924982 -1.4052428 -0.61069024 -0.32638714 -0.22096398 -0.37777534 -0.69678766 -0.8307123
0.71611494 -0.4018573 -0.96155 -0.9555708 1.2085925 0.6616751 0.5736825 -0.5250395
-1.1492748 -0.6969964 -0.3920206 -0.24873647 0.36206144 1.0710685 0.44005796 -0.3773754
0.09476145 0.52526104 0.1898068 -0.1031555 0.14636028 -0.4207138 -0.105430655 0.1086123
-0.36506447 -0.24222498 -0.47239506 1.7928977 1.2779944 -0.16627468 0.723619 -0.11759944
0.30169475 0.35080832 0.38045123 0.9166405 0.6085224 -0.8079823 -0.92639816 -0.45371163
0.5319861 0.87884957 -1.1881957 -0.3083666 0.36139843 0.6403192 -1.1396118 -1.5896372
-0.5701404 -0.32913485 -0.24804273 -0.7876482 -0.39290208 -0.13711523 0.15474123 0.6419554
0.21081471 -0.9802547 -0.44227973 -0.018512283 0.03998057 -0.92352647 0.23181656 -0.077815
-0.86844385 -1.8264958 -0.088599816 0.27632144 -0.17371696 -0.2785038 -0.032885205 -0.03323454
-0.057942845 -0.08124315 0.124174364 0.1774606 0.20367567 0.44607925 0.11185514 0.8618008
0.24317762 0.32517955 0.2604842 0.10489243 -0.06798569 0.10034333 0.049674816 -0.06960566
0.049432196 0.6769407 0.99746335 0.64092165 -0.2779181 -0.20741114 0.6530688 0.40878186
-0.15324587 0.14989515 -0.4072084 0.0012453584 0.4569551 0.2125782 0.091976315 0.25766468
0.45541015 0.3075701 0.053033523 -0.33163825 0.34004626 0.8207556 0.4863913 -0.08545226
-0.7073252 -0.5156153 -0.4588937 -0.56720865 -0.24257079 -0.1307768 0.009495254 -0.07091914
0.150348 0.046943203 -1.5136744 -0.4977542 -0.3315624 0.3154441 0.45803788 -0.0066093626
-0.18623462 -0.79489005 -0.21808322 0.6821253 0.68278664 1.0062928 -0.3078821 -0.507171
-0.5537781 0.34520447 0.39338928 -0.03906694 -0.9623374 -0.5837857 -0.9067262 -1.2288717
0.536022 0.0357636 -0.19686246 -0.045203086 -0.14146352 -0.29121006 -0.32737502 -0.20192136
-0.5753104 -0.3557934 -1.0504808 -0.4003557 -0.15092632 -0.7776296 0.2290641 -0.026979487
0.19895998 0.7310716 0.40934157 -0.28371957 -0.28357548 -0.5095879 -0.54231507 -0.72292674
-0.6573935 -0.32135728 0.4739528 0.8684471 0.46618682 0.379735 -0.007704463 0.051800355
0.18469039 0.44664466 0.33695891 0.3600164 -0.06067315 -0.08787904 -1.1813977 -0.20803714
-0.0711282 -0.7494871 -0.24758041 -0.05772662 -0.2340935 0.10607686 -0.4569522 -0.45784986
00000000: 6a95 13bf b892 e83e 07fe bd3e 10cd 40be
00000010: c64b b3be c0b8 c0be 50f3 163f 25f7 7f3f
00000020: 0cfb ec3e 9859 98bd 8dd0 6f3e de23 51be
00000030: 6cd7 91bf 47e9 d13e 9b19 303f c401 5e3e
00000040: 5be0 ac3e c8f0 b43c 0d08 523d 9d79 48bf
00000050: 8cc2 96be 20bd 6abe 1627 5f3d 7d68 1ebf
00000060: 0cdc 93bc c993 883e 3180 9fbe 9754 283d
00000070: 4bb9 bf3d bd3b fabd 3218 433e ce37 fc3d
00000080: 140a e93d e415 f13e 8194 a33e 095e 5bbe
00000090: 2bb5 93be 4b19 f1be 245c 1bbf 32b9 5e3f
000000a0: 6dba 013f 09fd 22bf d03e d43e 34fb 123e
000000b0: b2ae 43be 378c ca3f 9edf b83f 3135 ca3f
000000c0: cff5 4e3f 1e2a c83c 8052 493e b59b a2bf
000000d0: 16c2 5e3f 3a2c d23c 6855 02bf 66c7 d73b
000000e0: 500e bdbe ffde b3bf 3256 1cbf 371c a7be
000000f0: 6244 62be c56b c1be ad60 32bf 90a9 54bf
00000100: 4f53 373f 3dc0 cdbe 2428 76bf 4aa0 74bf
00000110: 29b3 9a3f 8a63 293f dbdc 123f fd68 06bf
00000120: 701b 93bf 5b6e 32bf edb6 c8be c6b4 7ebe
00000130: 1e60 b93e c618 893f 474f e13e 5937 c1be
00000140: 4b12 c23d 8277 063f b75c 423e 3143 d3bd
00000150: 78df 153e cd67 d7be 07ec d7bd 2070 de3d
00000160: bbe9 babe d309 78be c4dd f1be ac7d e53f
00000170: 5295 a33f e943 2abe 183f 393f fad7 f0bd
00000180: bc77 9a3e 269d b33e 81ca c23e f4a8 6a3f
00000190: 20c8 1b3f eed7 4ebf 6e28 6dbf e44c e8be
000001a0: 3e30 083f 49fc 603f cc16 98bf 3ae2 9dbe
000001b0: 3709 b93e f6eb 233f cdde 91bf 3b79 cbbf
000001c0: b9f4 11bf 5d84 a8be eafe 7dbe 50a3 49bf
000001d0: 762a c9be ef67 0cbe 7c74 1e3e 3057 243f
000001e0: d0df 573e f9f1 7abf 7d72 e2be 12a7 97bc
000001f0: abc2 233d 3b6c 6cbf 5261 6d3e 795d 9fbd
00000200: 5652 5ebf 9dca e9bf d273 b5bd 017a 8d3e
00000210: dce2 31be 0d98 8ebe a3b2 06bd f120 08bd
00000220: 7a55 6dbd cf62 a6bd 214f fe3d 3bb8 353e
00000230: 5b90 503e 8064 e43e 4f14 e53d fa9e 5c3f
00000240: 8e03 793e ef7d a63e 2f5e 853e d8d1 d63d
00000250: 153c 8bbd ce80 cd3d d277 4b3d 6a8d 8ebd
00000260: 6a79 4a3d fc4b 2d3f c259 7f3f 7113 243f
00000270: 484b 8ebe 9663 54be 842f 273f db4b d13e
00000280: 7cec 1cbe 1d7e 193e 9f7d d0be 4b3b a33a
00000290: 05f6 e93e 1aae 593e 145e bc3d a0ec 833e
000002a0: 852b e93e d479 9d3e ae39 593d 7dcc a9be
000002b0: 8b1a ae3e 0a1d 523f 4808 f93e 9801 afbd
000002c0: 4413 35bf 5dff 03bf 1df4 eabe 9634 11bf
000002d0: 7a64 78be 5aea 05be fb91 1b3c 0e3e 91bd
000002e0: d3f4 193e 8447 403d 15c0 c1bf a3d9 febe
000002f0: 8cc2 a9be e481 a13e f183 ea3e 5a93 d8bb
00000300: 4ab4 3ebe ea7d 4bbf 3551 5fbe c39f 2e3f
00000310: 1bcb 2e3f 34ce 803f b9a2 9dbe f5d5 01bf
00000320: 67c4 0dbf a4be b03e 526a c93e a804 20bd
00000330: be5b 76bf fb72 15bf 351f 68bf ab4b 9dbf
00000340: bd38 093f da7c 123d 5096 49be df26 39bd
00000350: d0db 10be 7c19 95be b39d a7be 79c4 4ebe
00000360: 8b47 13bf 8d2a b6be 2876 86bf 6cfb ccbe
00000370: 6e8c 1abe bc12 47bf c88f 6a3e 1604 ddbc
00000380: 2abc 4b3e 8227 3b3f 3895 d13e b143 91be
00000390: ce30 91be 5a74 02bf 29d5 0abf ba11 39bf
000003a0: f14a 28bf f188 a4be f1a9 f23e 8d52 5e3f
000003b0: 0ab0 ee3e a06c c23e b875 fcbb 9c2c 543d
000003c0: 7a1f 3d3e 9cae e43e e185 ac3e 1254 b83e
000003d0: 6984 78bd edf9 b3bd 0a38 97bf b007 55be
000003e0: a9ab 91bd 63de 3fbf b885 7dbe c072 6cbd
000003f0: 35b6 6fbe d33e d93d a4f5 e9be 4c6b eabe

0.bias f4 [100]
-2.4201577 -0.8245231 -1.1698742 -1.4021486 -0.57293636 -0.70780355 -1.1540285 -1.688623
-0.9367621 -0.8579309 -1.30034 -1.0123153 -1.0856346 -0.73710066 -1.5222958 -1.4487671
-1.4907552 -1.1987224 -2.2578685 -1.8774786 -0.7501322 -1.1823615 -1.0118672 -1.2365394
-0.7155587 -0.95526165 -0.7640579 -1.4539238 -1.8485632 -1.5639204 -0.07992301 -0.80751634
-0.8264269 -0.74211335 -1.5612788 -0.9520379 -1.3789282 -0.88919836 -0.35551262 -0.461848
-1.6311271 -0.7808805 -1.8742033 -2.0082543 -0.5608653 -1.3892466 -1.3296603 -1.6198884
-1.3816607 -2.324944 -1.4756658 -1.5095096 -1.2768366 -0.7882655 -2.0757363 -0.8321964
-1.541314 -1.9021326 -1.6368092 -2.2608347 -1.3668789 -1.218316 -2.3855674 -0.9144244
-1.0733767 -0.7439376 -0.9744623 -0.3881696 -2.0317457 -1.8608027 -1.9390705 -0.61695
-1.5592887 -2.025441 -1.2383897 -2.0603635 -0.967685 -0.79850894 -0.9635475 -1.909488
-0.27369237 -1.4598716 -1.4046366 -1.2158012 -1.3022344 -1.1508025 -0.23841847 -0.94154155
-0.6088629 -1.584145 -2.0205986 -1.5561713 -2.461697 -0.7267601 -1.3150847 -1.144497
-1.7483091 -0.42989278 -1.6556518 -0.50693715
00000000: dde3 1ac0 f213 53bf 70be 95bf 9b79 b3bf
00000010: f5ab 12bf 9d32 35bf 35b7 93bf cc24 d8bf
00000020: a4cf 6fbf 5ca1 5bbf 8b71 a6bf 8c93 81bf
00000030: 13f6 8abf a1b2 3cbf 97da c2bf 3371 b9bf
00000040: 11d1 bebf bc6f 99bf eb80 10c0 3851 f0bf
00000050: aa08 40bf 9f57 97bf dd84 81bf ec46 9ebf
00000060: db2e 37bf 078c 74bf 4c99 43bf 2d1a babf
00000070: b89d ecbf 8b2e c8bf adae a3bd 64b9 4ebf
00000080: b790 53bf 24fb 3dbf fcd7 c7bf c1b8 73bf
00000090: b880 b0bf 81a2 63bf c005 b6be 5777 ecbe
000000a0: c6c8 d0bf c9e7 47bf e5e5 efbf 3d87 00c0
000000b0: de94 0fbf d5d2 b1bf 4f32 aabf 8158 cfbf
000000c0: 42da b0bf e2cb 14c0 9ee2 bcbf 9c37 c1bf
000000d0: 626f a3bf c5cb 49bf ddd8 04c0 d30a 55bf
000000e0: c749 c5bf 1579 f3bf f782 d1bf 84b1 10c0
000000f0: e3f5 aebf c7f1 9bbf 23ad 18c0 b817 6abf
00000100: 6864 89bf b272 3ebf 5c76 79bf 2abe c6be
00000110: 1f08 02c0 c82e eebf 7633 f8bf 6ff0 1dbf
00000120: c696 c7bf d3a0 01c0 8e83 9ebf ffdc 03c0
00000130: 34ba 77bf 156b 4cbf 0dab 76bf 1a6a f4bf
00000140: 6821 8cbe 13dd babf 22cb b3bf 609f 9bbf
00000150: 9eaf a6bf 7f4d 93bf f923 74be de08 71bf
00000160: 70de 1bbf 43c5 cabf 7d51 01c0 9f30 c7bf
00000170: 728c 1dc0 f30c 3abf b254 a8bf e17e 92bf
00000180: 98c8 dfbf e81a dcbe 66ec d3bf a2c6 01bf

2.weight f4 [60, 100]
-0.050332952 -0.6069828 -0.9497266 -0.18530515 -0.73676604 -0.37196276 1.2639471 -0.5547577
0.13379662 -0.46182504 0.1281225 0.0058983364 -0.8167874 0.4258671 -0.45085514 0.57327324
-0.1276697 -0.14750887 0.46084332 -0.31103972 -0.5773962 0.5339151 -0.60403395 -0.58248734
-1.1454756 0.2884076 0.70420235 -0.11971404 -0.19861509 -0.32912144 0.15070947 0.2344306
-0.27571043 -0.02154627 -1.2839037 -0.73336667 -0.55710346 -0.2650422 -0.4390989 -0.9532685
-0.055396657 -0.4461822 -0.4662827 0.12616082 -0.7107486 -0.11133985 -0.3975594 0.12932967
-0.17137417 0.41842216 0.4559272 0.4729131 0.044858735 -1.0846112 -0.033231914 -0.5557562
-0.35510382 -0.06534232 -1.0508401 -0.5995195 -0.6966546 -0.3457723 -0.06713066 -0.6271211
0.570328 -0.30377743 0.06947722 -0.3614241 -0.3016316 0.28628027 0.3246566 -1.1144272
0.0074408185 0.20657972 -0.6176575 0.05233309 -0.8221769 0.04020095 -0.32453868 -0.28616697
0.08508443 0.39498514 -0.2995985 -0.4108207 -0.12230337 0.12740676 -1.3636076 -0.30437982
-0.09010972 0.33454725 -0.0641675 -0.40688995 0.29669064 0.19725998 -0.50123096 -0.45333263
-0.82353455 0.50495917 -0.40786543 -0.74112624 1.0547004 0.90597767 -0.29734337 -0.7116055
-1.5124532 -0.39249045 0.24636431 0.31832612 -0.028259527 -1.0095603 -0.21770331 0.108769596
-0.3521082 0.7264856 -0.22891778 -0.004088873 -0.29001564 0.01797275 -0.117172346 -0.7576518
-0.15409474 -0.51928407 0.03549877 0.5294521 -0.25170353 -0.2616929 -0.9993403 -0.29498
0.43622297 -0.01135671 -0.4723101 0.45671904 0.13440308 -0.4543723 0.074173965 -0.10795814
0.37585753 -0.30354974 -0.48687103 -0.11401877 0.3492142 -0.9471792 -0.6598396 0.53012604
-0.19123553 0.14483368 0.1853194 -0.17980194 -0.7281142 0.768875 -0.02353525 0.009246544
0.12056368 -0.7449849 -0.15371935 -0.7784684 -0.24782404 0.038394 -0.7010278 0.49572057
0.24940686 -0.49224508 -0.45528045 -0.07485271 -0.50053626 1.0676011 -0.11635665 -0.79353654
-0.30749878 -0.091173865 -0.8293209 0.1364187 -0.16124555 0.07856446 -0.5597844 0.48371762
0.6282483 -0.32737172 0.63765883 -0.36090064 1.1722813 0.71876246 -0.5417986 0.060761504
0.5984912 0.7100543 -0.3462425 -0.40216616 -1.242749 -0.0063814335 0.21448451 -0.5214918
0.96476096 -0.4698579 0.67485344 -0.083804004 0.22658378 0.063498616 -0.48723263 0.31359312
0.26147753 -1.1672662 0.9668562 -0.6420148 -0.30851907 0.15845695 -0.08819767 -0.6686641
-0.22341195 -0.66966546 -0.6834533 -0.5249785 -0.15706839 0.97985935 -0.30536845 -0.7043875
-0.22243163 -0.67022574 -0.72392505 0.99206173 0.2938482 0.6721946 -0.49045113 0.5125607
-0.34604672 -1.0437939 -0.66865176 0.15203202 -0.5199309 -0.16912736 -1.037809 0.30035746
-0.34838027 -0.6420324 -0.26812088 -0.1644071 -1.2343421 -0.60915 -0.34522498 -0.6612655
1.2175273 -1.0434946 -0.5334341 -0.18358375 -0.4833722 -0.5478426 -0.73382443 -0.76119053
-0.04733815 -0.11627712 -0.29404566 0.028706765 -0.0102451 -0.42241758 -0.06738389 0.107457384
00000000: ed29 4ebd 3a63 1bbf 4821 73bf a2c0 3dbe
00000010: b39c 3cbf e771 bebe 05c9 a13f 9a04 0ebf
00000020: fb01 093e 5574 ecbe 8b32 033e d546 c13b
00000030: fb18 51bf 410b da3e 7cd6 e6be 09c2 123f
00000040: d9bb 02be 910c 17be a8f3 eb3e 9940 9fbe
00000050: 3dd0 13bf a9ae 083f f8a1 1abf e41d 15bf
00000060: f29e 92bf 29aa 933e 9b46 343f a22c f5bd
00000070: c161 4bbe 9b82 a8be 9553 1a3e 930e 703e
00000080: eb29 8dbe ce81 b0bc f556 a4bf ebbd 3bbf
00000090: 559e 0ebf 9cb3 87be 92d1 e0be 6809 74bf
000000a0: 9be7 62bd fe71 e4be 9bbc eebe 4d30 013e
000000b0: 9ff3 35bf 2606 e4bd e88c cbbe ff6e 043e
000000c0: b67c 2fbe 6e3b d63e 4a6f e93e aa21 f23e
000000d0: cbbd 373d 8ad4 8abf 301e 08bd 0a46 0ebf
000000e0: 2bd0 b5be 32d2 85bd ee81 86bf 1c7a 19bf
000000f0: f557 32bf 1109 b1be cd7b 89bd 028b 20bf
00000100: 0401 123f b788 9bbe 134a 8e3d 940c b9be
00000110: 756f 9abe 5493 923e 6439 a63e 8da5 8ebf
00000120: 1cd2 f33b a289 533e cd1e 1ebf 395b 563d
00000130: 2f7a 52bf c0a9 243d ef29 a6be 7a84 92be
00000140: bf40 ae3d 7e3b ca3e f964 99be 1757 d2be
00000150: 307a fabd eb76 023e b28a aebf acd7 9bbe
00000160: 728b b8bd c749 ab3e 406a 83bd e153 d0be
00000170: d6e7 973e 85fe 493e ac50 00bf 371b e8be
00000180: 29d3 52bf 0145 013f bdd3 d0be 73ba 3dbf
00000190: 6c00 873f 27ee 673f 643d 98be c72b 36bf
000001a0: 1198 c1bf 82f4 c8be ed46 7c3e a4fb a23e
000001b0: 8680 e7bc 4639 81bf 9eed 5ebe 98c2 de3d
000001c0: 8747 b4be f6fa 393f 6c69 6abe f4fb 85bb
000001d0: ee7c 94be 973b 933c 0ef8 efbd 78f5 41bf
000001e0: 03cb 1dbe cdef 04bf 2967 113d 2c8a 073f
000001f0: 49df 80be 9dfc 85be c4d4 7fbf 9e07 97be
00000200: 9e58 df3e 7f11 3abc a1d2 f1be 14d7 e93e
00000210: f6a0 093e 7ca3 e8be 85e8 973d 2819 ddbd
00000220: 6670 c03e df6a 9bbe 2947 f9be ac82 e9bd
00000230: 34cc b23e 567a 72bf 3feb 28bf 57b6 073f
00000240: 3fd3 43be 484f 143e 5ec4 3d3e 001e 38be
00000250: b165 3abf fed4 443f ffcc c0bc d17e 173c
00000260: 17ea f63d 55b7 3ebf 9b68 1dbe b449 47bf
00000270: 96c5 7dbe 0743 1d3d 8f76 33bf 16cf fd3e
00000280: 8364 7f3e 8c07 fcbe 851a e9be 614c 99bd
00000290: 2523 00bf 27a7 883f 654c eebd 3625 4bbf
000002a0: 7b70 9dbe 5db9 babd 604e 54bf 58b1 0b3e
000002b0: 8e1d 25be 67e6 a03d 084e 0fbf d6a9 f73e
000002c0: e1d4 203f 449d a7be 9c3d 233f f8c7 b8be
000002d0: 500d 963f d100 383f 50b3 0abf 0ee1 783d
000002e0: b836 193f 1ec6 353f b246 b1be b9e8 cdbe
000002f0: 6612 9fbf 581b d1bb d4a1 5b3e 7d80 05bf
00000300: 93fa 763f 3791 f0be 32c3 2c3f 6fa1 abbd
00000310: 9405 683e 900b 823d 8e76 f9be 478f a03e
00000320: 62e0 853e fb68 95bf e383 773f 155b 24bf
00000330: 36f6 9dbe 8a42 223e fba0 b4bd 922d 2bbf
00000340: 1ac6 64be 326f 2bbf ccf6 2ebf fe64 06bf
00000350: 89d6 20be 10d8 7a3f 4159 9cbe bd52 34bf
00000360: 1ec5 63be ea93 2bbf 2753 39bf c2f7 7d3f
00000370: 4573 963e f214 2c3f 691c fbbe 2e37 033f
00000380: 092d b1be 0a9b 85bf c32c 2bbf 48ae 1b3e
00000390: 311a 05bf b92f 2dbe edd6 84bf 74c8 993e
000003a0: e65e b2be 3c5c 24bf 2447 89be 565a 28be
000003b0: ecfe 9dbf 41f1 1bbf 54c1 b0be b248 29bf
000003c0: efd7 9b3f 3b91 85bf 238f 08bf 61fd 3bbe
000003d0: 907c f7be 6a3f 0cbf ebdb 3bbf 62dd 42bf
000003e0: a6e5 41bd b322 eebd 278d 96be 732a eb3c
000003f0: 10db 27bc 1e47 d8be 9100 8abd 9e12 dc3d

2.bias f4 [60]
-0.45530125 -0.4645533 -0.872567 0.35346138 -0.6571371 -0.7652908 -1.5228701 -0.27577826
-0.32965395 -0.7552296 -0.26760694 -0.77693367 -0.4611297 -0.77607507 -0.50245726 0.21463889
-0.23332478 -0.77900976 -1.5689579 -0.4463828 -0.45246997 -0.1517546 -1.0625404 0.24133368
0.6618576 -1.0072927 0.34940556 -0.18360178 -0.2934281 -0.49698836 -0.9210868 -0.7516476
0.23432131 -0.43805206 -0.26494282 -0.6629714 -1.5608044 -0.53590494 -0.6229635 -0.718194
-0.95686066 -0.48625734 -0.83457905 -0.6731337 -0.1903589 -0.5490523 -0.3142684 -0.31224725
-0.24970803 -1.006403 -0.67895293 -0.2440615 -0.5314855 -0.41374478 -1.6083556 -0.87915164
0.42057246 -0.07330166 0.45741612 -0.82506114
00000000: 3f1d e9be eed9 edbe 8d60 5fbf e4f8 b43e
00000010: 233a 28bf 19ea 43bf 68ed c2bf cf32 8dbe
00000020: 67c8 a8be ba56 41bf c703 89be 20e5 46bf
00000030: 3119 ecbe dbac 46bf 0aa1 00bf 4cca 5b3e
00000040: b1ec 6ebe 2f6d 47bf 9dd3 c8bf 498c e4be
00000050: 25aa e7be 8f65 1bbe 5301 88bf 2d20 773e
00000060: 806f 293f f8ee 80bf 49e5 b23e 1b02 3cbe
00000070: 353c 96be 4275 febe 58cc 6bbf fa6b 40bf
00000080: edf1 6f3e 5c48 e0be 96a6 87be 7eb8 29bf
00000090: 70c8 c7bf 1131 09bf 897a 1fbf 90db 37bf
000000a0: d2f4 74bf b9f6 f8be f9a6 55bf 7d52 2cbf
000000b0: 72ed 42be b18e 0cbf cae7 a0be dfde 9fbe
000000c0: 76b3 7fbe d0d1 80bf dccf 2dbf 42eb 79be
000000d0: 6f0f 08bf 5bd6 d3be 99de cdbf 1510 61bf
000000e0: 4655 d73e 2e1f 96bd 7232 ea3e 3537 53bf

4.weight f4 [60, 60]
0.19303997 0.30994868 -0.21563642 0.029612564 0.6884744 -0.020845894 0.9571765 -0.24281502
0.32770255 0.24238937 0.12212263 0.78826904 0.64176357 0.536561 -0.37041122 -0.10668178
-0.34178916 -0.32774112 0.33070174 0.65331966 0.33325022 -0.57719094 0.88780606 -0.4861337
0.037068196 0.47516733 -0.29823932 -0.051069096 0.5160395 0.5366282 0.5479862 0.3300924
0.17825371 0.110354386 0.6868085 -0.21377297 0.9661766 0.43451494 0.27616552 0.24272852
0.5672727 0.23665944 0.4921375 0.4914579 -0.26025066 0.162969 0.14021327 -0.22365886
0.19915499 0.7059388 0.47089863 -0.61401606 -0.27236673 0.24855724 1.1921638 0.02031991
0.18272963 0.26641446 -0.06462068 0.6663904 -0.31417477 0.83138317 -0.19657306 -0.36767733
0.5541497 1.018832 0.6079169 -0.37184894 0.51283985 -0.00989266 0.21384291 0.43834537
0.4408195 0.5336992 0.016944695 0.28010407 1.3449098 0.2586885 1.0360075 0.5618728
0.8972251 0.69249547 0.32374528 -0.37441242 -0.8310722 0.5709728 -0.2770429 -0.1406589
0.69364065 0.55986845 1.2091507 0.82315457 0.084682815 0.27397698 0.21882461 1.4547111
0.5231395 0.78523713 0.4231474 0.5976526 0.926222 0.4684242 0.6288695 0.63240063
0.15600878 0.55249333 0.14987317 0.5576738 0.42078117 0.6656973 1.065792 -0.021750916
0.06609448 0.8004872 0.46336454 0.40190387 -0.66171956 0.7709204 1.131781 0.54267716
0.6914727 0.18715733 0.2270292 -0.1256647 0.56217223 -0.1276044 0.7858356 -0.22946802
0.33644637 0.620967 -0.037670434 0.8956399 1.2930003 0.64165354 0.09839441 -0.3272951
0.27139255 0.6727769 0.99532634 0.79475904 0.33531836 -0.26054344 0.72383994 -0.4658578
-0.26341566 0.9327499 -0.10561926 -0.66659933 0.72583365 0.6739756 0.81432396 0.60547876
-0.13184147 0.7201307 0.89793193 0.25074598 0.69709724 0.54914564 0.5579218 0.5025359
1.0341867 0.48197612 0.5048512 0.86656106 0.11828937 1.178175 0.052976675 0.3306328
0.56369895 0.689748 0.7786178 -0.6098241 -0.6564749 0.34787965 0.8014145 0.28149644
-0.15283953 0.042860672 -0.39962828 0.8600338 -0.056085598 0.14809231 0.32424057 -0.0032968218
0.3603354 -0.10339763 0.613504 -0.1903937 0.2955146 0.027629413 -0.3383881 0.7011636
0.18270254 0.16768225 -0.03460523 0.34465814 -0.12923016 -0.25858808 0.5077211 0.13799916
-0.014186243 -0.054756004 0.658887 -0.049563296 -0.13087384 -0.006161039 -0.43593782 -0.027398402
0.1167171 0.23212016 0.599067 0.13242449 -0.118716635 0.00157195 0.2702833 -0.11002334
0.4111517 0.2005324 0.22071627 0.39459592 0.09014222 0.3204485 0.4035134 0.22762291
-0.2231575 0.050892435 -0.035107 0.008338528 0.119263075 0.51616824 0.090143636 -0.41918424
-0.15460494 0.2539393 0.6571318 0.0790945 -0.43307465 -0.14675619 -0.30255365 0.53114617
0.07377797 0.3740013 -0.3962864 -0.27004343 0.5237986 -0.1572018 0.6479882 0.026639042
0.036446206 -0.024327947 -0.06801564 0.5682841 0.6335092 0.28075376 -0.2609596 0.07815983
00000000: 45ac 453e 98b1 9e3e cbcf 5cbe 0c96 f23c
00000010: dc3f 303f 02c5 aabc 8509 753f 80a4 78be
00000020: a1c8 a73e eb34 783e 6e1b fa3d 00cc 493f
00000030: 9e4a 243f 105c 093f 8aa6 bdbe fa7b dabd
00000040: fdfe aebe afcd a7be bd51 a93e f53f 273f
00000050: c69f aa3e c9c2 13bf 4247 633f 84e6 f8be
00000060: d2d4 173d 2249 f33e d3b2 98be d42d 51bd
00000070: 2a1b 043f 7760 093f d348 0c3f df01 a93e
00000080: 2488 363e 7b01 e23d afd2 2f3f 4de7 5abe
00000090: 5a57 773f be78 de3e 9165 8d3e d38d 783e
000000a0: c938 113f da56 723e 72f9 fb3e 5fa0 fb3e
000000b0: 933f 85be 58e1 263e 1194 0f3e d406 65be
000000c0: 49ef 4b3e 68b8 343f a019 f13e 2830 1dbf
000000d0: a773 8bbe ca85 7e3e d398 983f f175 a63c
000000e0: 7a1d 3b3e 7a67 883e d957 84bd 9098 2a3f
000000f0: 84db a0be 87d5 543f 734a 49be 3440 bcbe
00000100: c1dc 0d3f 1669 823f 71a0 1b3f fc62 bebe
00000110: 7949 033f d314 22bc a3f9 5a3e ce6e e03e
00000120: 18b3 e13e 83a0 083f 9acf 8a3c cd69 8f3e
00000130: 0126 ac3f d272 843e e59b 843f e5d6 0f3f
00000140: 8bb0 653f 6247 313f f1c1 a53e fcb2 bfbe
00000150: 26c1 54bf 462b 123f 91d8 8dbe e308 10be
00000160: 6f92 313f 8a53 0f3f 73c5 9a3f 42ba 523f
00000170: 2f6e ad3d b646 8c3e 8f13 603e f933 ba3f
00000180: 78ec 053f 4d05 493f c7a6 d83e c3ff 183f
00000190: e31c 6d3f 4cd5 ef3e 97fd 203f 02e5 213f
000001a0: c4c0 1f3e 3470 0d3f 5a78 193e b6c3 0e3f
000001b0: a170 d73e 236b 2a3f df6b 883f fa2e b2bc
000001c0: 8b5c 873d bbec 4c3f 1e3e ed3e 58c6 cd3e
000001d0: 7466 29bf 0a5b 453f 33de 903f e4ec 0a3f
000001e0: 5b04 313f 2ca6 3f3e 587a 683e 3fae 00be
000001f0: 85ea 0f3f baaa 02be 862c 493f aaf9 6abe
00000200: b342 ac3e b1f7 1e3f 504c 1abd a848 653f
00000210: 0981 a53f 6843 243f 0283 c93d 3993 a7be
00000220: f7f3 8a3e 1b3b 2c3f b5cd 7e3f 5475 4b3f
00000230: d9ae ab3e f365 85be 934d 393f ea84 eebe
00000240: 6bde 86be b3c8 6e3f e94e d8bd 41a6 2abf
00000250: 3cd0 393f aa89 2c3f 8977 503f a800 1b3f
00000260: 7301 07be 7c5a 383f dede 653f c761 803e
00000270: f774 323f cf94 0c3f f7d3 0e3f 31a6 003f
00000280: 3b60 843f 93c5 f63e ee3d 013f f2d6 5d3f
00000290: b241 f23d 70ce 963f 12fe 583d b448 a93e
000002a0: 934e 103f 5393 303f 7f53 473f 6f1d 1cbf
000002b0: bd0e 28bf 481d b23e 8029 4d3f 4d20 903e
000002c0: f781 1cbe ac8e 2f3d 149c ccbe 2d2b 5c3f
000002d0: 03ba 65bd 83a5 173e dc02 a63e 7e0f 58bb
000002e0: e27d b83e 23c2 d3bd 990e 1d3f 91f6 42be
000002f0: b14d 973e 1457 e23c 3441 adbe 757f 333f
00000300: 6016 3b3e e5b4 2b3e 37be 0dbd 0877 b03e
00000310: e954 04be a865 84be 03fa 013f a74f 0d3e
00000320: 6a6d 68bc d547 60bd d2ac 283f e202 4bbd
00000330: cb03 06be 8be2 c9bb 3e33 dfbe 9d72 e0bc
00000340: 6009 ef3d e8b0 6d3e 745c 193f 499a 073e
00000350: b521 f3bd e409 ce3a 9362 8a3e eb53 e1bd
00000360: 7a82 d23e 5e58 4d3e 7203 623e 7a08 ca3e
00000370: 7c9c b83d d311 a43e 4f99 ce3e fb15 693e
00000380: 6683 64be 9674 503d 5ccc 0fbd 529e 083c
00000390: 3340 f43d 9a23 043f 3a9d b83d 519f d6be
000003a0: c250 1ebe 5504 823e ca39 283f 4cfc a13d
000003b0: f6bb ddbe 4147 16be 50e8 9abe 32f9 073f
000003c0: e818 973d 197d bf3e 0de6 cabe 2243 8abe
000003d0: aa17 063f 82f9 20be 8ee2 253f 1f3a da3c
000003e0: 9e48 153d 674b c7bc c94b 8bbd 117b 113f
000003f0: a92d 223f f5be 8f3e 7f9c 85be 4312 a03d

4.bias f4 [60]
-1.0528387 -0.26402152 -0.43709522 -0.6176165 -0.5829834 -0.40903834 -1.4597125 -0.79218334
-1.4158093 -0.27147818 -0.75581527 -0.3568995 -0.90036815 0.4844803 -0.81390125 0.08324476
-0.3768682 -1.7498239 -1.0457581 -1.3488809 0.311654 0.44725636 -0.18362316 -0.77604085
0.6399618 -0.48367867 -1.1345602 -0.94278157 -0.5881321 -0.88780063 1.8655667 -2.0003238
-0.7977655 -0.9317749 -0.84194326 -0.37360308 -0.91496414 -0.37445343 -0.6974598 -0.6607924
-1.1511167 0.035381686 -0.76271987 -1.4862703 -0.57548743 -1.4340338 -0.5678744 -0.83981943
0.9597743 -0.36946484 -0.32296282 -0.81830823 0.6124636 0.026901634 -0.6904836 -0.95205826
-1.0132675 -0.99579346 -1.0047009 -1.1765147
00000000: 6bc3 86bf d42d 87be f2ca dfbe 1d1c 1ebf
00000010: 663e 15bf 796d d1be dcd7 babf 87cc 4abf
00000020: 3d39 b5bf 30ff 8abe 1c7d 41bf 88bb b6be
00000030: 877e 66bf cd0d f83e d55b 50bf 3b7c aa3d
00000040: def4 c0be 3bfa dfbf 67db 85bf 21a8 acbf
00000050: 1d91 9f3e c9fe e43e b607 3cbe 9daa 46bf
00000060: 89d4 233f bba4 f7be 4539 91bf 225a 71bf
00000070: d38f 16bf e746 63bf e4ca ee3f 4e05 00c0
00000080: 5c3a 4cbf cd88 6ebf 9889 57bf e748 bfbe
00000090: 173b 6abf 5cb8 bfbe ba8c 32bf b129 29bf
000000a0: cb57 93bf 63ec 103d 9c41 43bf 1b3e bebf
000000b0: 2553 13bf 6b8e b7bf 3760 11bf 68fe 56bf
000000c0: c5b3 753f 7f2a bdbe 625b a5be a67c 51bf
000000d0: 6aca 1c3f d160 dc3c 89c3 30bf 17ba 73bf
000000e0: c0b2 81bf 52ec 7ebf 0a9a 80bf 0998 96bf

6.weight f4 [40, 60]
0.021222357 -0.2819491 -0.50221086 0.50369084 -0.11338835 -0.07561751 0.0074796537 0.52863026
0.3697242 0.16312651 0.28660268 0.26767096 0.63565934 0.08994974 -0.016140593 -0.49130276
-0.08396754 0.08645136 -0.44530886 0.26733398 -0.021071568 -0.1967475 -0.36980128 0.6275021
-0.4316654 0.1815896 0.3686064 0.06941214 0.2989066 0.16278835 -0.9798693 -0.05576781
0.94281334 0.18552378 0.13859507 0.007027869 -0.08875085 0.08211832 0.32312208 0.09631418
0.33744374 -0.55945194 0.37408772 0.45200974 0.87509316 0.31317943 0.27371705 0.7539705
-0.3091532 0.39727524 0.14063647 0.54398096 0.0110621005 0.37299767 0.48471126 0.20604016
0.31757832 0.418499 0.12850304 -0.19134165 -0.32039335 -0.40074974 -0.3107799 -0.39923647
-0.1278839 -0.21026081 -0.013498184 0.028199235 -0.641396 0.01187133 -0.35334405 -0.296596
-0.009466478 0.10575547 -0.4401964 -0.075626716 -0.2725651 0.11073117 -0.054402888 -0.121179126
-0.63723 -0.0864559 -0.27480853 -0.096172966 0.22614214 -0.054552324 -0.66247284 0.08713964
-0.003675556 -0.1286101 -0.3338332 0.052175403 -0.14197879 -0.0011495574 0.03446487 -0.00863173
-0.25530374 -0.05199236 0.19646698 0.2138056 0.15636323 0.023625173 0.25722936 0.117120035
-0.37726 0.019237988 -0.21726796 0.10900667 -0.16453825 -0.11782147 -0.33636308 -0.2879178
-0.5201511 -0.47057557 0.047682222 -0.30840522 0.0674523 0.35295433 -0.111108966 -0.31200346
-0.42798945 -0.11194508 -0.95816755 0.054367714 -0.16054948 -0.462703 0.38839102 0.41103458
0.2883871 1.1194583 -0.5684625 0.5141562 0.58013034 -0.5034132 -0.61838377 -0.39669898
-0.52463615 0.14814822 -0.7461646 -0.15208614 -0.72645336 -0.05021178 -0.67351234 0.3674995
-0.8976959 -0.42951608 0.29959115 -0.010994737 0.87202805 -0.041013874 -1.3880364 0.20315874
0.9482286 0.27050552 0.8253548 0.68734235 -0.6523321 0.06530939 -0.12358658 0.12956877
0.41381484 -0.6430001 -0.2439472 0.24161467 0.74412555 1.0276896 0.5593448 0.48518312
-0.834841 0.26177767 0.22813915 0.46671084 -0.4301026 -0.36928725 0.5455848 0.14620355
0.06618682 -0.15568873 -0.2258124 0.12171059 -0.11737881 0.006635062 -0.67051774 0.14830069
-0.06025381 -0.37724936 0.72485846 0.038546704 0.12127478 0.6358379 -0.02774308 -0.5202834
-0.31920147 0.073599175 0.060092404 -0.40567374 0.57390195 -0.026929263 0.013053651 0.15359141
-0.025243225 -0.26942784 -0.33367953 0.7249745 -0.8783176 -0.11420763 1.144131 -0.54575413
-0.35235825 -0.07648563 -0.40170953 0.6381896 -0.2872377 -0.02078886 0.20820403 0.37327856
0.47733593 0.58345073 0.21129593 -0.15738744 -0.009361989 -0.39562714 -0.0937875 0.1884953
0.059113137 0.61334944 0.564928 -0.21346827 -0.19457984 0.43255576 0.13224635 0.464205
-0.59761 0.60849434 -0.13869412 -1.0811813 0.2613932 0.34156373 -0.2560397 -0.26093045
0.021292457 0.29206207 -0.09960087 0.14666209 -0.0580795 -0.16634463 0.07873207 0.43729338
-0.25590053 0.24736966 -0.28548512 -0.39968148 0.33775616 0.2680648 -0.2273817 -0.22871542
00000000: 82da ad3c a25b 90be e490 00bf e2f1 003f
00000010: 2738 e8bd 5add 9abd e217 f53b 5054 073f
00000020: 7e4c bd3e a30a 273e 96bd 923e 2b0c 893e
00000030: 92ba 223f 9237 b83d 4739 84bc 098c fbbe
00000040: 2cf7 abbd 690d b13d 86ff e3be 00e0 883e
00000050: 489e acbc 2d78 49be 9856 bdbe faa3 203f
00000060: 3f03 ddbe a0f2 393e fab9 bc3e f427 8e3d
00000070: 490a 993e fdb1 263e b7d8 7abf ca6c 64bd
00000080: 375c 713f f2f9 3d3e deeb 0d3e 0a4a e63b
00000090: 01c3 b5bd a62d a83d 4270 a53e 5e40 c53d
000000a0: 6dc5 ac3e 3e38 0fbf 6d88 bf3e d26d e73e
000000b0: 1b06 603f 0e59 a03e a424 8c3e 3604 413f
000000c0: 5449 9ebe a967 cb3e 0203 103e 5642 0b3f
000000d0: d03d 353c 8df9 be3e 132c f83e 31fc 523e
000000e0: a099 a23e 8045 d63e 4d96 033e 11ef 43be
000000f0: 990a a4be 122f cdbe 8b1e 9fbe b968 ccbe
00000100: fff3 02be 9c4e 57be 7d27 5dbc 1502 e73c
00000110: 8732 24bf f87f 423c 83e9 b4be 6edb 97be
00000120: 4919 1bbc 5396 d83d 6c61 e1be 2ee2 9abd
00000130: a78d 8bbe 06c7 e23d 90d5 5ebd c32c f8bd
00000140: 8121 23bf ca0f b1bd b4b3 8cbe 55f6 c4bd
00000150: ce91 673e 4272 5fbd d297 29bf 4476 b23d
00000160: 99e1 70bb 5eb2 03be 2fec aabe e0b5 553d
00000170: e362 11be bfac 96ba 092b 0d3d 1a6c 0dbc
00000180: 2cb7 82be f1f5 54bd a42e 493e dbef 5a3e
00000190: af1d 203e 9489 c13c 91b3 833e a1dc ef3d
000001a0: 3928 c1be fc98 9d3c 7e7b 5ebe e43e df3d
000001b0: b77c 28be 624c f1bd c837 acbe f669 93be
000001c0: 9f28 05bf 48ef f0be 6f4e 433d 4ae7 9dbe
000001d0: 6e24 8a3d 6eb6 b43e 198d e3bd ebbe 9fbe
000001e0: 6f21 dbbe 7643 e5bd 784a 75bf aeb0 5e3d
000001f0: 1567 24be 68e7 ecbe 30db c63e 2073 d23e
00000200: 79a7 933e 694a 8f3f c286 11bf be9f 033f
00000210: 6c83 143f b0df 00bf 664e 1ebf 211c cbbe
00000220: 8e4e 06bf 2bb4 173e a504 3fbf 78bc 1bbe
00000230: d9f8 39bf deaa 4dbd 4e6b 2cbf e528 bc3e
00000240: 66cf 65bf 88e9 dbbe 0364 993e 4523 34bc
00000250: 3b3d 5f3f 2afe 27bd 2dab b1bf d808 503e
00000260: 1cbf 723f b37f 8a3e 744a 533f abf5 2f3f
00000270: 3dff 26bf eec0 853d f61a fdbd adad 043e
00000280: 8adf d33e a89b 24bf 4bcd 79be d669 773e
00000290: 037f 3e3f 558b 833f 3931 0f3f ec69 f83e
000002a0: 24b8 55bf b907 863e 4f9d 693e b9f4 ee3e
000002b0: 6836 dcbe 3813 bdbe 72ab 0b3f 62b6 153e
000002c0: f58c 873d de6c 1fbe 5e3b 67be 6743 f93d
000002d0: 4d64 f0bd ef6a d93b 0da7 2bbf 23dc 173e
000002e0: b3cc 76bd d426 c1be 5390 393f 26e3 1d3d
000002f0: e95e f83d 46c6 223f 7545 e3bc 4b31 05bf
00000300: 606e a3be 2abb 963d 7423 763d 78b4 cfbe
00000310: 3deb 123f c29a dcbc fbde 553c 1147 1d3e
00000320: e1ca cebc 72f2 89be 0bd8 aabe ee97 393f
00000330: 6cd9 60bf b1e5 e9bd e272 923f 8bb6 0bbf
00000340: 4d68 b4be 7fa4 9cbd dfac cdbe 6560 233f
00000350: d210 93be 664d aabc 7033 553e 5e1e bf3e
00000360: 6065 f43e 075d 153f f65d 583e 2c2a 21be
00000370: 0763 19bc a48f cabe a913 c0bd e904 413e
00000380: 9e20 723d 7804 1d3f 1f9f 103f 6d97 5abe
00000390: f03f 47be f377 dd3e 966b 073e 47ac ed3e
000003a0: f8fc 18bf 49c6 1b3f d505 0ebe 2664 8abf
000003b0: 54d5 853e 71e1 ae3e a317 83be ad98 85be
000003c0: 856d ae3c 2989 953e 8afb cbbd 962e 163e
000003d0: c5e4 6dbd 3f56 2abe 483e a13d ebe4 df3e
000003e0: 6505 83be 794e 7d3e 1b2b 92be 0da3 ccbe
000003f0: 60ee ac3e ca3f 893e c0d6 68be 6034 6abe

6.bias f4 [40]
-0.93951076 -0.5629902 -1.8411151 -0.6274705 -0.65372306 0.4244987 -0.55266106 -0.54708976
-1.0150131 -0.9254629 0.95788366 1.335051 -0.52713215 0.0894502 -1.6057395 -0.19122854
-0.30980024 -1.0965763 -0.70529073 -0.5693479 -0.5691185 -0.65264505 -0.36141562 -0.35290328
-0.28284043 -0.64578676 -0.48368135 -0.2683376 -1.2051686 0.24752305 -0.6531697 -0.37448245
-0.3740998 0.65608823 -0.5328533 0.14971611 -0.75251853 -1.1223665 -0.37201366 -1.1453898
00000000: c783 70bf 2020 10bf a9a9 ebbf e8a1 20bf
00000010: 655a 27bf e557 d93e 327b 0dbf 130e 0cbf
00000020: f3eb 81bf 23eb 6cbf dd37 753f f3e2 aa3f
00000030: 22f2 06bf ab31 b73d df88 cdbf 6ad1 43be
00000040: 239e 9ebe 9d5c 8cbf ef8d 34bf c9c0 11bf
00000050: c0b1 11bf bf13 27bf 780b b9be bdaf b4be
00000060: 76d0 90be 4852 25bf 15a5 f7be 8c63 89be
00000070: f742 9abf af76 7d3e 2136 27bf 2abc bfbe
00000080: 028a bfbe 66f5 273f 1369 08bf 2e4f 193e
00000090: 0ea5 40bf b5a9 8fbf 9378 bebe 229c 92bf

8.weight f4 [20, 40]
-0.51183695 0.32052344 0.8249181 -0.22757961 -0.18158783 -0.25039786 -0.25914353 0.38580364
-0.111634456 0.2233799 -0.013871367 -0.24899286 -0.29727268 0.1612105 0.21234135 -0.2091598
-0.38000387 -0.20373373 -0.20285565 -0.02158115 -0.013823175 -0.32668185 0.025887474 0.20998469
-0.20853238 0.0427254 -0.101787366 0.059851933 0.76506954 -0.32543948 0.32413685 -0.40042153
0.38178658 -0.5430604 -0.3024982 0.21097162 0.31298724 0.315121 -0.61108047 0.17743897
0.56016874 0.28377396 0.30174038 0.23245688 -0.31327146 -0.3020429 0.6162076 0.5687628
0.41166246 0.6561171 -0.104631126 -0.33480963 0.18893649 0.0022599073 -0.30521134 0.31175408
0.16311032 -0.2699909 -0.0074355183 1.189599 -0.32052454 -0.040174324 0.6964728 -0.110506885
0.26829267 0.07237242 0.5196557 0.13461636 -0.06043738 -0.3130708 0.6693434 0.2051121
0.07859173 0.108631216 -0.22703837 -0.120314166 0.59154296 0.06378751 -0.21159166 -0.15330558
0.2240959 -0.03512573 0.17563373 -0.37053338 -0.03089858 -0.26879734 -0.024914237 -0.19692719
-0.0042765085 0.49866685 0.053531367 -0.49071854 0.28189063 0.3006537 -0.06375032 -0.24740686
0.014744697 -0.27833012 -0.14471646 -0.029897254 0.39232263 -0.0007632632 0.17922251 -0.2081567
-0.0056037284 -0.11729531 0.16761819 0.058994118 -0.09929632 -0.21047102 0.008271357 0.057909932
-0.09022827 0.16359328 0.12760776 -0.07805072 0.21321924 0.28833517 0.30758092 -0.09370891
-0.00590874 -0.20266567 0.48614767 0.2343499 0.030017085 -0.07631878 0.4489641 0.6662875
-0.05868496 1.1266994 -0.2722907 -0.18999025 0.2510113 -0.36399284 0.45806596 0.15144925
0.22602266 0.0063586757 -0.10596863 0.27538252 0.21634068 0.36431217 0.6163473 0.11083358
0.20033383 0.2161056 0.36607778 -0.4310186 0.37387684 0.37711853 0.16928151 -0.04726064
-0.7266961 0.047588028 0.30400997 0.056627747 0.5095506 0.266633 0.5496491 0.32435778
0.4028169 -0.138521 0.29986185 -0.44563952 0.25200298 -0.15764113 -0.32050693 0.398479
0.0034290324 0.5217042 0.032626178 -0.29764226 -0.37509254 -0.07856048 0.50782454 -0.39454556
-0.11989107 0.37269986 -0.007807049 0.17515232 -0.43822774 -0.068387695 0.29288247 0.045978423
-0.37566268 -0.27138948 -0.22302398 -0.19295634 0.16211058 -0.07213452 -0.23335303 -0.37934545
0.06240078 -0.4577987 0.009030241 -0.09271407 0.42264745 -0.21238519 -0.25972757 0.33229953
0.91697216 0.33311546 0.5926433 -0.3933051 0.38693824 -0.26401648 -0.42205933 0.54574573
0.34199563 0.20556085 -0.2165424 -0.4003921 -0.40599185 -0.07138672 0.42232746 -0.17355028
-0.015835166 0.5102251 0.18519583 0.029663268 -0.66804624 0.7168926 0.0026661472 0.671383
-0.24236462 0.2924353 0.8017699 -0.15442273 0.21286428 -0.50003624 0.45449877 0.015002457
0.2462461 -0.28953698 0.16814911 -0.027364401 0.63038087 -0.3874042 -0.4343367 0.15332419
0.003027756 -0.06040549 -0.4896396 -0.14008601 0.31649113 -0.41190296 0.7119287 0.72908795
0.47690088 0.7322856 -0.34177208 -0.4809853 0.18307292 0.03429968 -0.41747075 0.15990256
00000000: bf07 03bf a61b a43e d52d 533f a10a 69be
00000010: 29f2 39be 2634 80be 76ae 84be 0e88 c53e
00000020: 9ba0 e4bd b3bd 643e bb44 63bc fcf7 7ebe
00000030: 2034 98be 5e14 253e 0370 593e fd2d 56be
00000040: de8f c2be 939f 50be 64b9 4fbe f4ca b0bc
00000050: 997a 62bc d842 a7be f811 d43c 3a06 573e
00000060: 8389 55be d400 2f3d e575 d0bd 4d27 753d
00000070: 99db 433f 01a0 a6be 44f5 a53e 0d04 cdbe
00000080: 8879 c33e 0206 0bbf 0be1 9abe f208 583e
00000090: dd3f a03e 8a57 a13e c56f 1cbf 90b2 353e
000000a0: 3867 0f3f d24a 913e b77d 9a3e 2d09 6e3e
000000b0: 1e65 a0be 5ea5 9abe c8bf 1d3f 709a 113f
000000c0: 6cc5 d23e 4af7 273f d848 d6bd 2b6c abbe
000000d0: 9178 413e f41a 143b a944 9cbe 3b9e 9f3e
000000e0: 6406 273e 3f3c 8abe a6a5 f3bb c844 983f
000000f0: cb1b a4be d58d 24bd 0b4c 323f 6f51 e2bd
00000100: a85d 893e fe37 943d 2808 053f dfd8 093e
00000110: 308d 77bd d14a a0be 175a 2b3f e808 523e
00000120: b3f4 a03d 0b7a de3d bf7c 68be 4667 f6bd
00000130: 5c6f 173f 07a3 823d 7cab 58be 23fc 1cbe
00000140: 6579 653e ffdf 0fbd 54d9 333e 8db6 bdbe
00000150: 051f fdbc ce9f 89be f118 ccbc 48a7 49be
00000160: f421 8cbb 4351 ff3e b543 5b3d 763f fbbe
00000170: f853 903e 48ef 993e 878f 82bd 3958 7dbe
00000180: be93 713c 4981 8ebe 8d30 14be 16eb f4bc
00000190: 83de c83e ba15 48ba 1b86 373e 0827 55be
000001a0: 7b9f b7bb 8638 f0bd 1aa4 2b3e d1a3 713d
000001b0: de5b cbbd b785 57be 9684 073c f732 6d3d
000001c0: 99c9 b8bd ff84 273e 9cab 023e 0ed9 9fbd
000001d0: 2556 5a3e aba0 933e 3f7b 9d3e 75ea bfbd
000001e0: 1b9e c1bb 9787 4fbe 59e8 f83e 6cf9 6f3e
000001f0: 64e6 f53c 054d 9cbd 9fde e53e d191 2a3f
00000200: a45f 70bd b037 903f b069 8bbe ce8c 42be
00000210: 8e84 803e 455d babe 9f87 ea3e 8315 1b3e
00000220: 7c72 673e 705c d03b 1506 d9bd f0fe 8c3e
00000230: 6988 5d3e 2087 ba3e f0c8 1d3f b7fc e23d
00000240: 5024 4d3e c94a 5d3e 8c6e bb3e 78ae dcbe
00000250: c96c bf3e ae15 c13e 2258 2d3e 5f94 41bd
00000260: c108 3abf aaeb 423d 32a7 9b3e 7ff2 673d
00000270: e871 023f 1f84 883e ceb5 0c3f 3912 a63e
00000280: 043e ce3e 73d8 0dbe 7e87 993e dd2a e4be
00000290: 8906 813e ad6c 21be 7c19 a4be 7105 cc3e
000002a0: 9eb9 603b 688e 053f 07a3 053d 9164 98be
000002b0: 210c c0be 51e4 a0bd ca00 023f e001 cabe
000002c0: 7389 f5bd 84d2 be3e 46d2 ffbb 215b 333e
000002d0: 635f e0be d90e 8cbd b1f4 953e df53 3c3d
000002e0: dc56 c0be 90f3 8abe 6660 64be 5996 45be
000002f0: 5100 263e 43bb 93bd 19f4 6ebe 9139 c2be
00000300: f697 7f3d 9764 eabe 93f3 133c e0e0 bdbd
00000310: 3f65 d83e 817b 59be 03fb 84be 2a23 aa3e
00000320: b0be 6a3f 1c8e aa3e 79b7 173f 495f c9be
00000330: c51c c63e 2b2d 87be 2918 d8be feb5 0b3f
00000340: 0d1a af3e 8b7e 523e 4abd 5dbe 3100 cdbe
00000350: 2ade cfbe 3333 92bd 4e3b d83e 2ab7 31be
00000360: c0b8 81bc 1d9e 023f faa3 3d3e 6200 f33c
00000370: 1405 2bbf 4686 373f 87ba 2e3b c2df 2b3f
00000380: 6e2e 78be 14ba 953e cb40 4d3f fe20 1ebe
00000390: 18f9 593e 6002 00bf 10b4 e83e decc 753c
000003a0: f027 7c3e 313e 94be 482f 2c3e 4f2b e0bc
000003b0: a460 213f d859 c6be 6161 debe 0401 1d3e
000003c0: 516d 463b bf6b 77bd 0bb2 fabe b572 0fbe
000003d0: 200b a23e f2e4 d2be f640 363f 82a5 3a3f
000003e0: 5a2c f43e 1277 3b3f c0fc aebe b543 f6be
000003f0: 7877 3b3e d27d 0c3d babe d5be 7fbd 233e

8.bias f4 [20]
-1.190672 -1.9405363 -0.13445924 -0.63768506 0.27071807 -0.96345186 -1.1926639 -0.7228145
-0.99244386 -0.6607864 -1.5049694 -1.244245 -0.33921108 -1.3763101 0.25023052 -0.82581544
-1.0484012 -0.7804276 -0.66251856 -1.4287968
00000000: f167 98bf 7e63 f8bf afaf 09be 543f 23bf
00000010: 8f9b 8a3e c8a4 76bf 36a9 98bf 5f0a 39bf
00000020: cd10 7ebf 4c29 29bf d6a2 c0bf 6c43 9fbf
00000030: 13ad adbe ee2a b0bf 371e 803e a468 53bf
00000040: 0332 86bf 1aca 47bf d19a 29bf d0e2 b6bf

10.weight f4 [1, 20]
0.039358366 0.09016696 0.036351986 0.2098669 0.0055512753 0.060202934 0.24292767 0.07333435
0.23241235 0.0633564 0.07320135 0.07066007 0.040062763 -0.052108407 0.15778054 0.14596975
0.05964602 0.03112189 0.07345145 0.005985373
00000000: 3d36 213d 75a9 b83d d2e5 143d 59e7 563e
00000010: 79e7 b53b 5a97 763d 08c2 783e 5230 963d
00000020: 81fd 6d3e 00c1 813d 97ea 953d 3ab6 903d
00000030: da18 243d a06f 55bd 3991 213e 1879 153e
00000040: 634f 743d 55f3 fe3c b76d 963d f320 c43b
